pytest_output_folder/unit_test/unit_test.onnx (onnx, 903278 bytes, 37 tensors)

encoder.down_path.0.conv1.weight f4 [64, 1, 3, 3]
00000000: 32de 69bd 4c47 7c3b 4cbd 9f3e 9bca 6dbe
00000010: 4d6c 80be a8cf 96be 36f9 243d 9d0f 90be
00000020: 358d 7c3e 6edf 86be 6d2a 583d 488f 3cbe
00000030: a74c 933e 1f8b 5f3e c3e6 f03d ac0b 8ebe
00000040: b7d3 8d3e 85d7 763d 8f4c 823e 6963 c03d
00000050: af71 133d 132c 103d b0fe cfbc b584 6c3e
00000060: 9bad a13e ef9b cbbd 955e b53c 9ef0 90be
00000070: df76 423d a686 8cbd 9b08 a03e 6663 b63c
00000080: 2b57 b93d 866d 733d 40a2 913e 9b08 f93d
00000090: ea3e 29be 65dd 5abd 0212 9d3e 0a11 ed3d
000000a0: 88b4 96be cf00 543e d334 91bd 69ba 12be
000000b0: 86e4 d13d a86b 563d 1cf4 d23d 12e7 073e
000000c0: f817 a4be e0eb ebbd 2323 9ebe d8d3 7b3d
000000d0: 7371 6ebe aa7f 81be 827f 113e 22df 91be
000000e0: 375d a8be 24e1 d73d ae99 21be a68f 8ebe
000000f0: 043a d93d 3393 64be 8a6b 003e 9597 703d
00000100: ae98 a6bd e3de fe3d 4b0d 45be f68d 2b3e
00000110: 723b f0bd a649 d6bd 2a13 8b3d 9637 fdbd
00000120: 9166 8b3e 7d99 203e b80f 46be ed47 963d
00000130: 1dda 503e c6d7 2e3e 0d62 1f3d 4726 a8bd
00000140: 6d4d adbb 22e1 11be 5684 7bbd 573e 813e
00000150: 5fa7 03be d62a 36bd 01c6 9c3e 75cd 063e
00000160: 2241 f33c a3fa 973e 0ec9 1cbe bc76 39be
00000170: ef4e bcbd 3374 19be 6d30 3dbd b2f9 f13d
00000180: 5ee1 0ebe 7793 803e ece9 7ebe 564a 12be
00000190: 4f22 553e 0ee7 59be 169c 6bbe f62d 25be
000001a0: e6ce 4cbe 2995 34be 72d1 a9be 3c38 8cbd
000001b0: a679 2cbc d8c9 66bc 1ff7 a8be 72f5 a43d
000001c0: 3db5 8f3e 42d2 94be 470b cabd bc25 8cbe
000001d0: cd3d fabd 8cf8 22bd 9e37 653e 87b3 a93d
000001e0: 9a3a 403d 8d05 e73d f114 a7be 91f7 0dbe
000001f0: 34ab 06be 88f2 96be ff18 c8bd 6d9b 533e
00000200: 2a3a fc3c c0f2 0abe 77a3 9f3e 25fe 93be
00000210: b608 7bbe da4b c93d 73c3 703d 5620 23be
00000220: ca77 6dbc 4598 7cbe 6f2a a7be 0bac 59be
00000230: 1939 a03e febc 20be c73f 2c3e 8d34 b0bc
00000240: 33e3 113d 77e1 bb3d c787 5c3c 770a 7f3e
00000250: 5157 aa3e 2aa5 863d d360 733d 46ea 4cbe
00000260: aebc 29be 512c 24be 4627 2cbe d55d aabd
00000270: 3346 393e 0e58 3b3d df12 573e 5657 943d
00000280: c10d 743e 0bb4 863d 9226 76be 1dfd 9bbd
00000290: f424 aabe 2b0a 40be 0ddc 823e 6579 a83d
000002a0: da4b 2fbd ac4e 773c 96ac 1fbe f736 edbd
000002b0: 291f d53d 4ba1 1bbe 65a6 243d bb39 fe3d
000002c0: aa83 98be 9da4 ee3d 6b2d 7dbd ab37 18be
000002d0: b5a3 383e 06df 743e 771a 843e 8f98 adbd
000002e0: 20be 8fbe 241c 80be 3ae1 6c3e 2371 d03d
000002f0: e1ea 743e a52f 073e bae4 7dbe 773b f73d
00000300: c7f6 d73d 4c3b 083c 9611 4fbc efc0 083d
00000310: 2aad c33d 537f a93e 6b0c 65be b5f4 c1bd
00000320: 0582 38be 294e 67be cc87 89be b3ec 3e3e
00000330: 0517 33bd 9928 c9bd 6f4b 453e 1ed1 90be
00000340: dd83 a43e 2277 d43d 9d01 22be 9033 bbbd
00000350: fa44 6b3e fd15 5c3e 2ac5 b63d ab03 6ebe
00000360: e623 c6bd fe0b 613e d94d 863e 262d 4cbe
00000370: 07d4 013e 2afe 7dbe 008c cc3c b991 46be
00000380: ec41 9ebe 2035 4fbe 6368 263e 99e0 9b3e
00000390: 7b5b 73bd 73bd 4cbd 9612 96ba 9aab 8cbe
000003a0: ee28 27be 5365 74be 40e0 913b bbf1 7abd
000003b0: 5567 94be 0072 a8be 558e a33e d9c7 84bb
000003c0: 138d 3bbe ba54 bfbd 53b4 423e 2be4 a93e
000003d0: c674 a8bd bb0b 263d 4ffc 1c3e eb98 36be
000003e0: 7650 cfbd b85a e1bd 4717 c83d 9be7 05be
000003f0: 0059 e8bd 8b0f 78be 80c8 38bd 4f02 67be
-0.057096668 0.0038494645 0.3119911 -0.23221819 -0.25082627 -0.29455304 0.04027673 -0.28136912
0.24663241 -0.26342338 0.052774835 -0.18414032 0.2876942 0.21830414 0.11762764 -0.2774328
0.27700588 0.06026413 0.25449035 0.09393961 0.03599709 0.035198282 -0.02539 0.23097499
0.31577763 -0.09941851 0.022139827 -0.28308576 0.047476646 -0.0686162 0.31256565 0.022264194
0.09049829 0.05943062 0.284441 0.121598445 -0.16527906 -0.053433795 0.306778 0.115755156
-0.2943461 0.20703433 -0.070901535 -0.14328922 0.102486655 0.052348763 0.103004664 0.1327174
-0.32049537 -0.11519599 -0.30886182 0.061481327 -0.23285465 -0.25292712 0.14208797 -0.2849055
-0.32883617 0.10540989 -0.1578128 -0.2784397 0.10606769 -0.22321777 0.12541023 0.05873831
-0.0813459 0.12444856 -0.19243352 0.16753373 -0.11730088 -0.10463266 0.06790765 -0.12364118
0.2722669 0.15683551 -0.19341934 0.073379375 0.20395704 0.17074499 0.038911868 -0.08210426
-0.005288771 -0.14246038 -0.061405502 0.25242874 -0.12856816 -0.044474445 0.30619815 0.13164313
0.029694144 0.29683408 -0.15311071 -0.181117 -0.09194743 -0.14985733 -0.04618876 0.11815204
-0.13953158 0.25112507 -0.24893922 -0.1428617 0.20813869 -0.21279547 -0.23008761 -0.16130814
-0.200008 -0.17635025 -0.33167607 -0.06846663 -0.01052705 -0.014086209 -0.33001038 0.080546275
0.2806796 -0.29066664 -0.09865432 -0.2737254 -0.12218819 -0.039787814 0.22384498 0.08286195
0.046930887 0.112803556 -0.32633165 -0.1386397 -0.13151246 -0.29481912 -0.097703926 0.20664759
0.030789454 -0.13569164 0.311794 -0.28904834 -0.24515042 0.09828921 0.058780145 -0.15930304
-0.014493892 -0.24667461 -0.32649562 -0.21257035 0.31293562 -0.15697095 0.16821204 -0.021509433
0.035617065 0.091738634 0.013460106 0.24906336 0.33269742 0.06574471 0.05941851 -0.20011243
-0.16575882 -0.1603253 -0.16811857 -0.08318678 0.18093185 0.045738272 0.21003293 0.072432205
0.23833372 0.06577309 -0.24038151 -0.07616637 -0.33231318 -0.18753879 0.2555851 0.08226279
-0.042796947 0.01509444 -0.1559318 -0.11582749 0.10406334 -0.15198247 0.04019775 0.12413355
-0.29787952 0.11652491 -0.061810892 -0.14864986 0.180312 0.23913202 0.2580144 -0.08476364
-0.2807474 -0.2502147 0.23132792 0.10177829 0.23917724 0.13201769 -0.24794284 0.12071889
0.10545116 0.008314919 -0.01263847 0.03338712 0.09554513 0.33104953 -0.22368018 -0.09470502
-0.18018349 -0.2258841 -0.26861417 0.18644981 -0.043723125 -0.098221965 0.19267057 -0.28284544
0.32131854 0.10374285 -0.15820928 -0.09140694 0.22975531 0.21492763 0.08924325 -0.23243587
-0.09674816 0.21977231 0.26231268 -0.19939098 0.12678538 -0.24803987 0.024969101 -0.19391526
-0.3090967 -0.2023511 0.16250758 0.30444792 -0.059413414 -0.04998536 -0.0011449631 -0.27474672
-0.16324207 -0.23866777 0.0044517815 -0.06126569 -0.28985086 -0.32899475 0.31944528 -0.004052144
-0.18315534 -0.09342332 0.190141 0.3318189 -0.08225398 0.04053853 0.15330623 -0.17831771
-0.101227686 -0.11003631 0.09770065 -0.13076632 -0.113451004 -0.24224679 -0.045113087 -0.22559474

encoder.down_path.0.conv1.bias f4 [64]
00000000: 62d3 bb3d cb9d 193e 4f6e cb3d 623a 913e
00000010: faa1 b43d 0896 0dbe 0038 f8bd eb10 a23d
00000020: 7735 b6bd a46e 4c3e bd3f 143e f63e ea3d
00000030: 3a19 6e3e 6e7f 453e 4592 57be cc74 83be
00000040: 18b0 8dbe 73d5 0ebe 9deb 613e 9335 2b3c
00000050: ed29 a9bd abc0 5e3d d664 2bbe d2da b33d
00000060: 5b25 5fbe 10c0 98be d212 88be d156 89be
00000070: e6fd 87be 2205 a0bd 4b8a ccbc 01c0 05be
00000080: 1d54 5dbe 385a 84be 8590 373d 1b69 a13e
00000090: 78c7 19be 874d 75bd b8b4 38be b325 003d
000000a0: 497d 963e fb19 633e 742e 863e aa4a 83bd
000000b0: cfb4 943e 3c2c 5d3e bf7c 693e c197 9abe
000000c0: ba75 84bd 4502 a33e 3719 f43d 9d34 6d3e
000000d0: a592 10bd a43f 153e 85cd 6e3e 4f8b 893e
000000e0: 6fa5 8a3e e782 0b3e 9887 a3be a1c4 46be
000000f0: b58b 8c3e 66c4 963e fc1f d6bd 09a2 b53d
0.091711774 0.150016 0.09933149 0.28364855 0.08819957 -0.13826764 -0.12120056 0.07913383
-0.08896916 0.19964081 0.14477439 0.1143779 0.2325181 0.19286892 -0.21051891 -0.25675046
-0.2767341 -0.13948612 0.22062536 0.010449785 -0.0825995 0.05438296 -0.16737685 0.08781971
-0.21791594 -0.29834032 -0.2657686 -0.26824048 -0.26560897 -0.07813479 -0.024968287 -0.13061525
-0.21614118 -0.2585008 0.04481556 0.31525502 -0.15017498 -0.05988839 -0.18037689 0.031285953
0.2939246 0.2217788 0.26207316 -0.064107254 0.29044196 0.21598905 0.22801493 -0.30193904
-0.06467767 0.3183767 0.11918872 0.23164602 -0.0352961 0.14575058 0.23320587 0.26864097
0.2707934 0.13624154 -0.31939387 -0.19410945 0.27450338 0.29446715 -0.10455319 0.088687964

encoder.down_path.0.conv1_bn.weight f4 [64]
00000000: 77be 7f3f 77be 7f3f 77be 7f3f 77be 7f3f
00000010: c520 803f 0000 803f 0000 803f 77be 7f3f
00000020: c520 803f c420 803f c420 803f 77be 7f3f
00000030: 78be 7f3f 77be 7f3f c520 803f 77be 7f3f
00000040: c520 803f c520 803f c420 803f c520 803f
00000050: c520 803f c420 803f 77be 7f3f 77be 7f3f
00000060: 77be 7f3f c420 803f 77be 7f3f c420 803f
00000070: c520 803f c520 803f 77be 7f3f 77be 7f3f
00000080: 77be 7f3f 77be 7f3f c520 803f 77be 7f3f
00000090: c520 803f c520 803f 0000 803f c520 803f
000000a0: 77be 7f3f 77be 7f3f c520 803f 77be 7f3f
000000b0: c520 803f c520 803f c520 803f 78be 7f3f
000000c0: c420 803f c520 803f c520 803f 77be 7f3f
000000d0: 77be 7f3f c520 803f c520 803f 7abe 7f3f
000000e0: 9dbe 7f3f c420 803f 0000 803f 77be 7f3f
000000f0: 77be 7f3f 77be 7f3f 0000 803f c520 803f
0.999 0.999 0.999 0.999 1.001 1.0 1.0 0.999
1.001 1.0009999 1.0009999 0.999 0.9990001 0.999 1.001 0.999
1.001 1.001 1.0009999 1.001 1.001 1.0009999 0.999 0.999
0.999 1.0009999 0.999 1.0009999 1.001 1.001 0.999 0.999
0.999 0.999 1.001 0.999 1.001 1.001 1.0 1.001
0.999 0.999 1.001 0.999 1.001 1.001 1.001 0.9990001
1.0009999 1.001 1.001 0.999 0.999 1.001 1.001 0.9990002
0.9990023 1.0009999 1.0 0.999 0.999 0.999 1.0 1.001

encoder.down_path.0.conv1_bn.bias f4 [64]
00000000: 1412 83ba 5112 83ba 9111 833a 5112 83ba
00000010: 5412 833a e90f 83ba 3f12 83ba e211 833a
00000020: d111 83ba 930c 833a 6511 833a 4812 83ba
00000030: 4512 83ba 5a12 833a 5812 83ba 1211 83ba
00000040: 6011 83ba 4012 83ba 4512 83ba dc11 83ba
00000050: 0c12 83ba 2a12 83ba 1b12 833a 2a12 83ba
00000060: e311 83ba 3c12 83ba fe11 833a 4112 833a
00000070: 2612 833a 1e12 83ba a310 83ba 4812 83ba
00000080: 4012 833a 2410 83ba d411 83ba 5912 833a
00000090: 4912 83ba f511 83ba 820d 83ba 550f 83ba
000000a0: 4612 83ba 2a12 833a 4d12 83ba 0d12 83ba
000000b0: 3012 83ba 2712 83ba 2b12 833a c211 833a
000000c0: 5012 833a 2d12 83ba 850f 83ba 3412 83ba
000000d0: 7810 833a 3c12 83ba 4312 83ba 3a12 833a
000000e0: 4812 83ba 8711 833a ef11 833a 3912 83ba
000000f0: 4812 83ba 4c12 833a b911 83ba 4b12 833a
-0.0009999895 -0.0009999966 0.0009999742 -0.0009999966 0.0009999969 -0.0009999248 -0.0009999945 0.0009999836
-0.0009999817 0.0009998254 0.0009999691 -0.0009999955 -0.0009999952 0.0009999976 -0.0009999974 -0.0009999594
-0.0009999685 -0.0009999946 -0.0009999952 -0.0009999829 -0.0009999885 -0.000999992 0.0009999903 -0.000999992
-0.0009999837 -0.0009999941 0.0009999869 0.0009999947 0.0009999915 -0.0009999906 -0.0009999465 -0.0009999955
0.0009999946 -0.0009999317 -0.000999982 0.0009999975 -0.0009999956 -0.0009999858 -0.0009998532 -0.0009999076
-0.0009999953 0.000999992 -0.0009999961 -0.0009999886 -0.0009999927 -0.0009999917 0.0009999921 0.0009999799
0.0009999964 -0.0009999924 -0.0009999132 -0.0009999932 0.0009999415 -0.0009999941 -0.0009999949 0.0009999939
-0.0009999955 0.000999973 0.0009999851 -0.0009999938 -0.0009999955 0.000999996 -0.0009999789 0.0009999959

encoder.down_path.0.conv1_bn.running_mean f4 [64]
00000000: 664f 033b f6d2 0e3d 362c 113d 95ce 533d
00000010: b684 263c 0000 0000 0000 0000 78de d03b
00000020: b880 863c 9946 1e3d 12ea 9c3b 4ae5 023a
00000030: caee 2f3c 3e97 553c 3d7d cf3a 525e 7a38
00000040: 5050 8e3b 6ae9 083c 3430 4a3c 050f 513b
00000050: b3cc 2a3c f140 ab3c a9f3 9738 90d8 993c
00000060: 628f be39 b364 1f38 b6aa 1339 bf04 0d39
00000070: 3d3b ec37 3d18 813b a990 123b b5a4 6d3c
00000080: 4a4e 863a 2d5a cc3c 362e 7e3b 72d5 8b3c
00000090: 503d 723b 9243 6b3c 0000 0000 d618 8d3c
000000a0: d069 773d e140 9b3c e86f 523d 2213 293b
000000b0: bdc0 f43c 2843 023d 6ec0 853c ac63 b937
000000c0: 024b 6239 3284 793c b533 733c 9cef 453b
000000d0: bb90 213c 369b 1f3d 6bbf 553c f2df b03c
000000e0: 3562 5f3d 4b8c 9f3c 0000 0000 2a63 b339
000000f0: 9ca7 ac3c be2f b03c 0000 0000 6e25 3f3b
0.0020036339 0.034869157 0.035442553 0.051710684 0.010163477 0.0 0.0 0.0063741766
0.0164188 0.038641546 0.0047886455 0.0004993273 0.010738084 0.013036547 0.0015830171 5.9692487e-05
0.00434307 0.0083564315 0.012340594 0.0031899821 0.010424781 0.02090499 7.245626e-05 0.018780023
0.00036346453 3.8002338e-05 0.00014082607 0.00013448576 2.8160977e-05 0.003939657 0.0022364056 0.014504601
0.0010246721 0.024945343 0.0038784868 0.017069552 0.0036962815 0.014359372 0.0 0.017223757
0.060403645 0.018951835 0.051376253 0.0025798758 0.029877061 0.031802326 0.01632711 2.2100132e-05
0.00021580982 0.015229272 0.014843871 0.0030202633 0.009861167 0.03896638 0.013046126 0.02159116
0.054537017 0.019476077 0.0 0.00034215424 0.021076016 0.02150714 0.0 0.0029166597

encoder.down_path.0.conv1_bn.running_var f4 [64]
00000000: 8a7b 663f b328 673f e319 673f 5237 673f
00000010: c9cc 663f 6666 663f 6666 663f ec87 663f
00000020: 1cdd 663f 0dbf 673f 9f8d 663f 1d6a 663f
00000030: 08e6 663f 34e9 663f 1374 663f b166 663f
00000040: 0a92 663f f4b8 663f cdca 663f 287e 663f
00000050: 6ef3 663f b8fd 663f b666 663f 88fa 663f
00000060: be69 663f 7b66 663f 3d67 663f 2767 663f
00000070: 8566 663f f49d 663f 187a 663f 0a01 673f
00000080: 516d 663f 6869 673f 2a8b 663f 4ed6 663f
00000090: 478a 663f 4500 673f 6666 663f 03fe 663f
000000a0: 550b 673f fe2e 673f 3abb 663f e07a 663f
000000b0: 702f 673f f6ee 663f ef08 673f 7166 663f
000000c0: da67 663f 02d5 663f e4ed 663f 0284 663f
000000d0: 7fc1 663f 1b46 673f c9c4 663f 6712 673f
000000e0: 3d8c 673f 5ed0 663f 6666 663f 6769 663f
000000f0: 14e5 663f 1556 673f 6666 663f 807f 663f
0.90032256 0.9029648 0.90273875 0.9031879 0.9015623 0.9 0.9 0.9005115
0.90181136 0.90525895 0.90059847 0.90005666 0.9019475 0.9019959 0.90020865 0.90000445
0.9006659 0.90125966 0.901532 0.9003625 0.90215194 0.90230894 0.90000474 0.9022603
0.900051 0.9000012 0.9000128 0.9000115 0.9000018 0.9008477 0.9003005 0.9023596
0.90010554 0.9039521 0.900561 0.90170753 0.90054744 0.90234786 0.9 0.9023134
0.90251666 0.9030608 0.90129435 0.9003124 0.9030676 0.90208375 0.90248007 0.90000063
0.90002215 0.90168774 0.9020674 0.9004518 0.90139 0.9034135 0.9014402 0.90262455
0.9044836 0.90161693 0.9 0.9000458 0.90193295 0.90365726 0.9 0.900383

encoder.down_path.0.conv2.weight f4 [64, 64, 3, 3]
00000000: d61f 2cbd 43ff 2c3d 5a54 e6bc bb88 0fbd
00000010: 12a8 01bd b9c7 d0bc 8f89 8abb 0491 943c
00000020: 0359 f33b 440d 6cbc 8bf5 acbc 435b 1ebd
00000030: 6ddc 79bb d4af 8c3c 3b57 bd3c c344 233d
00000040: aeba f73a c4f9 603a 2598 76bc bcb9 92bc
00000050: c50c 00bd 06a5 e23c e7f4 4d3c e402 ca3c
00000060: 6889 ba3c ec39 1ebb 8641 eebc bd69 ca3c
00000070: 6da8 84bc c0eb 8839 c428 323c 4c5f f63c
00000080: d2fa 22bc 4645 7e3c 3126 263d 2539 aebc
00000090: 3c34 893c e0ca 8b3c c971 2e3d b963 60bc
000000a0: 7cd4 f0bc 4a88 b7bc 7bbd bb3c 8b74 febc
000000b0: cbdc 123d e0e7 7c3c 8b28 f6bc 4a4b 25bd
000000c0: 6884 e13b 7efc 88bc eb7d c1bc 5eea d0bc
000000d0: 6a83 b93c cb34 193d 9050 5abc 0c85 49bc
000000e0: 5c4c 26bc 40ac 15bc 44fb 0c3c 1072 a73c
000000f0: 60e7 29bc 206a d2bb 3238 09bd 17ae ebbc
00000100: d782 223d 25a1 143d 6884 0f3c 2024 1a3d
00000110: b29e 06bd 32a6 bebc d2c2 b6bb 2640 fd3c
00000120: 1710 8c3c f5c0 073d dcbd 173d 9752 a43c
00000130: b117 0a3c 91c6 45bc 1eea 993b aff5 9dbb
00000140: 6a35 27bc f834 f5bb 39f2 09bd aa8f 9a3b
00000150: 2155 6dbc a5d4 d93c 37bd bb3c 5d03 68bc
00000160: 3640 8c3b 755a 8fbc 2c6b 1a3d 9864 f1bc
00000170: eebf ccbc bbea e0bc 1e30 9c3b 6254 4d3c
00000180: 80ef c0bb 2994 09bd 58c2 413c 8424 16bd
00000190: a4d3 9e3c eae3 22bc 39e3 c3bc 5648 19bc
000001a0: 590a c1ba c791 073d d405 fa3c b28a 2abc
000001b0: 2fc4 15bd bfe1 493c 8454 ccbc 9e6b 8bbb
000001c0: 4db5 12bd 43c7 9fba 65c4 d33c a47e a8bc
000001d0: 125b 633b 6128 6fbc dde9 9ebc 7ed5 78bb
000001e0: 52a8 ed3c a38a f53b 4164 f8bc 3a29 26bd
000001f0: f065 c13c b601 3ebc 945f ef3c 479c bf3c
00000200: 1b15 00bd 693e af3c 751c 873c 562b c4bc
00000210: 3daf 28bd 1eb0 e5bb 3238 16bd eaf8 7abc
00000220: 6029 a73b 0787 9bbc 4243 16bd 5713 683c
00000230: a0f1 b2bc a011 f43c 1e56 c93c b85c 1abc
00000240: 950b bbbc 581a 62bc 6511 b23c 6e4e df3c
00000250: f46d 0fbc 60ed 233d 0ed5 10bd c817 9dbb
00000260: f497 5bbb 700b c0bc 29b4 0fbd 840a c03c
00000270: a95e e5bc 1e19 39bc d00e d63a 9565 883c
00000280: 4632 77bc d1d5 803a 33fd 81bc cdf6 21bd
00000290: c035 05bc bf4e eabc 9860 1c3d 1bc4 9ebc
000002a0: 2f0b f6bc 0132 c13b ec70 9cbb 4921 2cbd
000002b0: 3ef4 99bb a95e dabc de33 1fbd 1126 ebbc
000002c0: 4add 063d bd82 8ebc e33c 10bd b976 27bd
000002d0: 666c c03c 7dda 20bd 7fe1 bd3c f86a 9b3c
000002e0: 2e6f ecbc eae1 663c b2ad b4ba 997b 0b3c
000002f0: a4fd 69bc 3550 883a 0336 233d 5c83 073d
00000300: 0102 9abb fb14 debc e01c 75bc d0e7 30bc
00000310: 662c 91bc e6b8 7f3c 812b 21bd f273 cfba
00000320: 6480 423c 3be6 163d 6bb2 19bd 80e0 063b
00000330: 76de 9f3b 606f d23c bc34 73bb 2d6e 2ebc
00000340: dc26 2e3a 5481 9a3c dd76 de3c 6818 e3bb
00000350: 3b4e 16bc 5f8c 6dbc a9e1 f9bb 0edb 8d3c
00000360: 4328 c83a a4c8 b6bc add4 dabc 1243 803b
00000370: 30c5 6f3b 9d74 10bd 820b b9bc 8f66 28bc
00000380: a735 93bc bd9d 133d 19f6 143d 1899 d9bc
00000390: 8730 2e3d 35d8 803c 4297 993c 5790 37bb
000003a0: b99f ba3c 5b30 41bc 4936 51bc 0140 fabc
000003b0: 631e 033d 51d7 8abb d0f8 4ebb bfaf 69bc
000003c0: 4ee4 9f3c da8c f9bb 10cf c23c d246 54bc
000003d0: a18d 203d 9a35 023d 5e4d a73c 80cc fa3c
000003e0: a602 09bd 0b9d 26bd cdb2 0a3b c183 053d
000003f0: 5608 debc 6218 a1bb 24bf f33c 606d 1b3c
-0.04202255 0.042235624 -0.028116394 -0.035042506 -0.031654425 -0.02548586 -0.004227824 0.018135555
0.0074263825 -0.01440746 -0.021113178 -0.038661253 -0.0038125769 0.017173685 0.023112884 0.0398605
0.0018900239 0.000858214 -0.0150509225 -0.01791083 -0.031262178 0.02766658 0.012570596 0.024659581
0.022770599 -0.002414341 -0.029083978 0.024708623 -0.016193593 0.0002611559 0.010873977 0.030074738
-0.009947496 0.015519446 0.040563766 -0.021267483 0.01674854 0.017064512 0.042588983 -0.013695651
-0.029398195 -0.022403855 0.0229175 -0.031061431 0.035855096 0.015436143 -0.03004863 -0.040355004
0.006882239 -0.01672196 -0.023619613 -0.02550238 0.02264567 0.037403863 -0.013324872 -0.012299787
-0.010150041 -0.009135306 0.008604828 0.020440131 -0.0103701055 -0.0064213425 -0.033500858 -0.028769536
0.03967556 0.036286492 0.008759595 0.037632108 -0.032866187 -0.023272607 -0.0055774236 0.030914377
0.017097516 0.033143003 0.0370463 0.020058913 0.0084285 -0.012071268 0.0046970984 -0.0048205475
-0.010205606 -0.007483121 -0.033678267 0.004716833 -0.014485628 0.026590655 0.022917373 -0.014160958
0.0042801155 -0.017499188 0.037699863 -0.029466912 -0.024993863 -0.027455678 0.004766478 0.012532325
-0.0058879256 -0.033588562 0.01182612 -0.036655918 0.019388027 -0.009942034 -0.02391206 -0.009355625
-0.0014727815 0.03309801 0.030520357 -0.010409044 -0.03656405 0.0123218885 -0.024942644 -0.0042547723
-0.035817433 -0.0012190122 0.025850484 -0.0205682 0.0034691733 -0.014597029 -0.019398624 -0.0037969048
0.029010925 0.0074933334 -0.030321242 -0.04056666 0.023608178 -0.011597088 0.02922038 0.023389949
-0.031270128 0.021392064 0.016493062 -0.023946445 -0.041182745 -0.00700952 -0.036674686 -0.015318135
0.005101368 -0.018985284 -0.036685236 0.014164767 -0.021843731 0.02979356 0.024577197 -0.00942152
-0.022832671 -0.013800226 0.02173681 0.027259078 -0.008754242 0.0400213 -0.035359435 -0.0047940947
-0.003350732 -0.023442954 -0.035083923 0.023442514 -0.027999239 -0.011297492 0.0016331319 0.01665
-0.01508767 0.0009829347 -0.015867805 -0.03954201 -0.008130491 -0.028602002 0.038178056 -0.01938062
-0.03003463 0.0058958535 -0.0047742035 -0.04202393 -0.0046983054 -0.026656466 -0.038867824 -0.028704675
0.03292588 -0.017396325 -0.035214316 -0.040884707 0.023489188 -0.039270867 0.023178814 0.018971905
-0.028861608 0.014091948 -0.0013784675 0.008513355 -0.014281664 0.001039988 0.03984643 0.03308426
-0.004699946 -0.027109614 -0.014960498 -0.010797456 -0.017721366 0.015608048 -0.03934813 -0.0015827401
0.011871431 0.03684066 -0.03752367 0.002058059 0.0048788143 0.025687873 -0.003711029 -0.010646385
0.0006643364 0.018860497 0.027156288 -0.0069303997 -0.009173925 -0.014498799 -0.0076257777 0.017316367
0.0015270788 -0.02231247 -0.02671274 0.0039142454 0.0036586039 -0.03526746 -0.022588495 -0.010278358
-0.01796992 0.036039103 0.03636751 -0.026562259 0.042526748 0.015728096 0.018748883 -0.0028009617
0.02278124 -0.011791314 -0.01276929 -0.030548098 0.0320114 -0.0042370935 -0.003158141 -0.014263093
0.019518044 -0.007615668 0.023780376 -0.012956338 0.039197568 0.0317894 0.020422634 0.030615091
-0.03344979 -0.04067711 0.0021163702 0.032596353 -0.027103584 -0.0049162367 0.029754229 0.009486526

encoder.down_path.0.conv2.bias f4 [64]
00000000: b426 a1bb 7229 06bc f1aa 02bd bd60 113d
00000010: 8364 e33c 10c3 dcb8 c066 e2bc b430 0abc
00000020: 3dda 47bb 6c10 ee3c e44b 57bc fcec 0d3d
00000030: 3900 eabc 4773 bc3b e740 c13b 7eeb c3bc
00000040: 8513 c5bc 2da4 c3bc 86df 7a3c 79f9 0ebd
00000050: 0487 1f3a de1d 1d3d d49a a93c 7d6a 1e3c
00000060: 3945 d13c c8c1 f9bc 3edf 34bc e01d 1c3a
00000070: dcf1 063d decc 00bd fd1b a2bc 5189 083d
00000080: b01c c13b 9243 e9bc 0bca f6bc 68b1 c0bc
00000090: 3568 d53c b782 0f3d 649a b7bc 9004 083d
000000a0: 6b2d f23c 3878 013d 4a9e 173d 2b45 80bc
000000b0: 65d3 f9bc 9cd0 fb3c 1985 dcbc 21ee 62bc
000000c0: 0614 253d cb3a d5bc 8a26 203c d65a b73c
000000d0: 848b ae3c 1a62 edbc c432 88bc a401 fcbb
000000e0: 53b3 1c3d c045 f73b 943d 01bc 1655 ce3c
000000f0: 1dd3 213d 1d1b 9b3c 7d60 a03c 6e01 4f3c
-0.004917944 -0.008188592 -0.031901304 0.035492647 0.027757889 -0.00010526751 -0.027636886 -0.008434463
-0.003049507 0.029060565 -0.013140652 0.034649834 -0.02856456 0.005751047 0.0058976295 -0.023916002
-0.02405716 -0.023881996 0.015312081 -0.034905884 0.00060854875 0.03835856 0.02070371 0.0096689435
0.025545703 -0.03048791 -0.011039553 0.00059553795 0.0329455 -0.031445377 -0.019788736 0.03333408
0.0058933124 -0.028474603 -0.030125638 -0.023522094 0.026050666 0.03503677 -0.022412486 0.033207476
0.029562673 0.03160879 0.03701619 -0.015657982 -0.030496309 0.030739121 -0.026918935 -0.01385072
0.0403023 -0.026029011 0.009774813 0.022382181 0.02130676 -0.028977443 -0.01662577 -0.0076906253
0.038256954 0.0075461566 -0.0078882165 0.025187057 0.039507974 0.018933827 0.01957726 0.012634618

encoder.down_path.0.conv2_bn.weight f4 [64]
00000000: 77be 7f3f c420 803f c420 803f c520 803f
00000010: 77be 7f3f c520 803f 77be 7f3f 77be 7f3f
00000020: 77be 7f3f c520 803f c420 803f 77be 7f3f
00000030: c520 803f c520 803f c420 803f 77be 7f3f
00000040: 77be 7f3f c420 803f c520 803f 77be 7f3f
00000050: c420 803f c420 803f c420 803f c520 803f
00000060: 77be 7f3f 77be 7f3f 77be 7f3f c520 803f
00000070: 77be 7f3f 77be 7f3f c520 803f c520 803f
00000080: 77be 7f3f c520 803f c520 803f 77be 7f3f
00000090: 77be 7f3f c520 803f 77be 7f3f 77be 7f3f
000000a0: 77be 7f3f 77be 7f3f c520 803f 77be 7f3f
000000b0: c520 803f 77be 7f3f 77be 7f3f c420 803f
000000c0: 77be 7f3f c520 803f c420 803f 77be 7f3f
000000d0: c420 803f c520 803f 77be 7f3f 77be 7f3f
000000e0: c420 803f 77be 7f3f 77be 7f3f 77be 7f3f
000000f0: c420 803f 77be 7f3f c420 803f c520 803f
0.999 1.0009999 1.0009999 1.001 0.999 1.001 0.999 0.999
0.999 1.001 1.0009999 0.999 1.001 1.001 1.0009999 0.999
0.999 1.0009999 1.001 0.999 1.0009999 1.0009999 1.0009999 1.001
0.999 0.999 0.999 1.001 0.999 0.999 1.001 1.001
0.999 1.001 1.001 0.999 0.999 1.001 0.999 0.999
0.999 0.999 1.001 0.999 1.001 0.999 0.999 1.0009999
0.999 1.001 1.0009999 0.999 1.0009999 1.001 0.999 0.999
1.0009999 0.999 0.999 0.999 1.0009999 0.999 1.0009999 1.001

encoder.down_path.0.conv2_bn.bias f4 [64]
00000000: 1e11 833a 4212 833a 9511 83ba 0712 833a
00000010: 1c12 833a 2f12 833a 9010 833a 4510 83ba
00000020: 6e10 83ba d010 83ba 9e11 83ba 3812 83ba
00000030: ab11 833a 0e12 833a f811 833a 2912 83ba
00000040: 0f12 83ba c210 83ba 4712 833a ff11 833a
00000050: 4112 833a 3012 833a 2311 833a da10 833a
00000060: 2412 833a d611 833a ee11 833a 7611 833a
00000070: f311 833a 4212 833a 0c12 83ba ef11 833a
00000080: 1f12 833a 2512 833a ba10 83ba 0608 83ba
00000090: 3212 83ba 0b12 83ba 7a11 833a 4512 833a
000000a0: 1f12 83ba 2312 833a 0312 83ba 3212 833a
000000b0: ff11 83ba 660f 83ba 6910 833a 5112 833a
000000c0: 3112 833a 3012 83ba 3212 83ba 0d12 833a
000000d0: f902 83ba 4012 833a 1c12 83ba ea11 83ba
000000e0: 79fe 823a 2d12 83ba 4e12 83ba 4f12 83ba
000000f0: 0d12 833a 1712 833a 3b12 83ba e411 83ba
0.0009999608 0.0009999948 -0.0009999747 0.0009999879 0.0009999904 0.0009999926 0.0009999443 -0.0009999356
-0.0009999403 -0.0009999517 -0.0009999757 -0.0009999936 0.0009999772 0.0009999888 0.0009999862 -0.0009999919
-0.0009999889 -0.0009999501 0.0009999954 0.000999987 0.0009999947 0.0009999927 0.0009999614 0.0009999529
0.0009999913 0.0009999822 0.000999985 0.0009999711 0.0009999856 0.0009999948 -0.0009999885 0.0009999851
0.0009999907 0.0009999914 -0.0009999492 -0.0009996898 -0.000999993 -0.0009999884 0.0009999715 0.0009999952
-0.0009999907 0.0009999912 -0.0009999875 0.000999993 -0.000999987 -0.0009999096 0.0009999397 0.0009999966
0.0009999928 -0.0009999927 -0.000999993 0.0009999886 -0.0009995393 0.0009999946 -0.0009999904 -0.0009999846
0.0009994052 -0.0009999924 -0.0009999962 -0.0009999963 0.0009999886 0.0009999898 -0.000999994 -0.0009999839

encoder.down_path.0.conv2_bn.running_mean f4 [64]
00000000: a267 c13c b6ff e93c 5d93 9a3c faec e23c
00000010: ec29 a73c 85f0 c73c b1bb 8d3c 83c6 d33c
00000020: 8eff 953c 321f 983c 207d 9e3c 22d8 f43c
00000030: 5da6 8b3c cdf0 913c ce76 ab3c e5c2 8b3c
00000040: e6ad 963c c262 6b3c 72cb 893c 8687 823c
00000050: 36d9 943c 07b0 883c 2101 903c f8f0 093d
00000060: dde4 ce3c 6503 943c 651a 8c3c 626f a43c
00000070: d0e4 be3c d7fe 813c a823 6c3c f51c e23c
00000080: 107e ce3c d80e b73c 9355 773c 52f9 d53c
00000090: 763b bc3c 321d 823c ba1e e53c 66f3 8a3c
000000a0: a5a0 793c be0b b63c 83e5 823c 4e44 6c3c
000000b0: 018f a03c 7a7b 9e3c 1207 403c 707c c23c
000000c0: 3356 b63c 720d b63c bafa 913c 5ded ff3c
000000d0: cab4 d73c 8205 c13c 104c 753c 7482 c13c
000000e0: c79b c23c 36a9 ca3c 75e9 de3c 5a2d 8a3c
000000f0: de07 bb3c 954f 713c a255 b23c 50f4 943c
0.023608986 0.028564315 0.018869096 0.02770089 0.020405732 0.02440668 0.017301412 0.025851494
0.018310335 0.018569563 0.019346774 0.029888216 0.017047102 0.017815018 0.020930674 0.017060706
0.018393468 0.014366807 0.016820643 0.015933763 0.01816998 0.016685499 0.017578663 0.03367707
0.025255615 0.018068025 0.01710243 0.020072643 0.023302466 0.015868587 0.014412798 0.027601698
0.025206596 0.022345945 0.015096086 0.026119862 0.022977572 0.015883062 0.027968753 0.016961765
0.015236055 0.022222396 0.01597858 0.014420582 0.01959944 0.019345988 0.011720436 0.023740977
0.0222579 0.022223208 0.017819751 0.031241113 0.026331324 0.023562197 0.014971748 0.023621775
0.023755921 0.02473889 0.02721093 0.016867328 0.0228309 0.0147284465 0.021769349 0.018182904

encoder.down_path.0.conv2_bn.running_var f4 [64]
00000000: 650b 693f 8d65 6a3f 6b7e 683f 2954 693f
00000010: 5290 683f b937 693f 93ab 683f 7494 693f
00000020: 9f29 693f ae53 683f 4982 683f a75e 6b3f
00000030: d108 683f c2a0 683f 74b5 683f 7236 683f
00000040: 048f 683f 63de 673f b7b4 683f f721 683f
00000050: 844c 683f c051 683f 18af 683f 7254 6b3f
00000060: f80e 693f 3af5 683f cf3c 683f 6985 683f
00000070: 80f2 683f 473b 683f 7bd2 673f 41ae 693f
00000080: 81aa 693f 2d8f 693f 17b9 673f d1b1 693f
00000090: 7e53 693f 53f4 673f f8b3 693f 9855 683f
000000a0: 9714 683f 2f39 693f 5fe2 673f 968e 673f
000000b0: aae7 683f 0052 683f d088 673f c9b2 683f
000000c0: adef 683f 4b77 693f 4a86 683f 7826 6a3f
000000d0: 94bd 693f d189 693f 626f 683f 2d9f 693f
000000e0: f400 6a3f c414 693f d7f3 693f f63b 683f
000000f0: 4df3 683f 8cfc 673f 2bad 683f 7175 683f
0.9103301 0.91561204 0.908179 0.91144043 0.90845215 0.9110065 0.908868 0.91242146
0.91079134 0.90752685 0.908238 0.91941303 0.9063845 0.90870297 0.90901875 0.90708077
0.90843225 0.9057371 0.9090075 0.90676826 0.90741754 0.9074974 0.9089217 0.9192573
0.91038465 0.90999186 0.90717787 0.9082857 0.90995026 0.9071545 0.9055554 0.91281515
0.91275793 0.91234094 0.905168 0.9128695 0.91143024 0.90607184 0.91290236 0.90755606
0.9065642 0.9110288 0.9057979 0.90451944 0.9097849 0.9075012 0.90443134 0.90897804
0.90990716 0.9119765 0.9082991 0.9146495 0.913049 0.91225916 0.90794957 0.9125851
0.91407704 0.9104731 0.91387695 0.90716493 0.9099625 0.9061973 0.90889233 0.908042

encoder.conv_bottom.conv1.weight f4 [64, 64, 3, 3]
00000000: 118c 16bd 005a c239 ba18 ad3c 1093 4abc
00000010: bc1b b1bc 9cab acbb fae6 7e3c 9532 24bc
00000020: 5cb9 6dba 7ba9 d1bc a38f d4bc a08a 543c
00000030: 7a46 8bbc fbc5 163d d1b8 5dbc ad16 153d
00000040: c021 073a 9679 863b 6988 fcbc b2df d8bc
00000050: 980b ea3b e858 8b3c 6620 143d 0985 f6bc
00000060: e1cb 2a3c e83b ed3b de1e 163b a8ef 133d
00000070: 2088 f83c 1b4c ef3c 947a 26bd 3896 2ab9
00000080: b49a d63b 6cd6 97bc 300b b4bc 0c7a dcbc
00000090: 95e2 eb3c b259 12bd 46d0 72bc 2413 23bd
000000a0: c070 e3bc 6cbd 863b bc1b 2f3c 5dc5 63bc
000000b0: ff2a b63c 0260 eebc e646 cb3c 17b0 053c
000000c0: f9fc 6a3c 2757 2d3c 2ee8 0c3d 1086 19bd
000000d0: 560d c03c 9029 f03c 4474 27bd 9150 f93c
000000e0: dfc7 8b3c 2704 f2bc 94f5 b93c b3e4 e73a
000000f0: 76da 24bd 7a2f 7abc 74fe 42bc bef1 f93c
00000100: d86d c0bc 0e29 0a3d 18b2 f73b d8c9 b33c
00000110: 9ad1 5e3c 16c4 6bbc a6f8 c63c 258b 8e3c
00000120: 3af1 dcbb cc78 e139 9576 1dbd 7bda 153d
00000130: e4ce 04bd e50d 23bd e79f 163c e5e6 953c
00000140: 0afb 873c 75c2 253d e9ef eebc 571d 81bc
00000150: 2805 86bc 8406 b43c 249e b53b 3230 0abd
00000160: 3287 9ebc 6dad 14bd 7ca6 ec3c b3bc 7b3c
00000170: 96e4 a43c f82c fb3b 13dd b7bb 4eb2 4c3c
00000180: 2f98 f1bc 85fc 66bc ab27 e93c 1ebf c6bc
00000190: f577 823c 4408 923c dfa4 853c 34fc bb3b
000001a0: c3ff 0c3d 226e 59bc 868f df3c 0fe3 e4bc
000001b0: a9e4 07bc b7d1 ca3a 08a1 8ebb 69f0 35bc
000001c0: 93ca b5bc 1cd8 b2bc 7c3b 763c 0a8a 50bc
000001d0: c39f 8bbc 7e1c f8bc 6b0a 4abb 984f 00bd
000001e0: 986b b23c 2c23 263d 8d88 d13c 6472 1d3d
000001f0: 8bbe 133c b12a 063c 460e 123d 0407 773c
00000200: 047b 13bd 7815 16bb 6b58 f5bc 7f31 873c
00000210: 092a a53c 48f7 98bc 72b9 323c c0b8 19bd
00000220: dec8 243c 0292 dbbc 06bf de3c 2220 3bbb
00000230: 0234 f1ba 6edf 243c cdc7 0cbd 884f ff3c
00000240: e23a 03bd d50c 8abc 08dd 6cbc 028f 8e3c
00000250: 690d aabc c697 8fbc 13ef f6ba 3f29 60bc
00000260: 2408 86bc dec3 a43c 05b0 9d3c 7ecf f83c
00000270: 6e69 4b3b 0f97 c03c a303 153c 1e38 db3c
00000280: 8df7 d3bc 64be 52bc fa51 1ebd b685 83bc
00000290: 6321 21bb 0e09 303b e8e1 e23b 52a9 f03c
000002a0: 2292 06bd 2c56 f4bc 4b7f f23b f0ed ce3c
000002b0: a813 a539 7b61 d2ba 28a8 a93b 2e9c 8d3c
000002c0: 9cc1 abbc bb61 85bc 72e6 233d 6a4a 233c
000002d0: 2356 dfbb efe8 053d 40f1 8dbc a95d d23a
000002e0: 38aa 8dbb 6a9a 98bc 4d8d a13c c67b e8bc
000002f0: c2b2 2ebd 13ef dd3c 0ba8 ae3c e624 d2bc
00000300: 0fb6 d43c 0689 2b3d 6cb5 edbc 270a 1b3c
00000310: 8ca7 1e3d 4de7 4d3c a2f9 f0bc 6a40 97bb
00000320: cb51 d4bc 4ba4 a63c 2452 41bc 724a 473c
00000330: f4a5 c2bc f3bb b8bb 3bf0 96bc bdff 05bd
00000340: ef8a c8bc 5380 6bbc 0054 14bc b585 55bb
00000350: fcb8 1e3d 3358 e53c bcbd 213d 5d72 4fbc
00000360: 8b5f e0bc a310 103d 7b8a 123c 1c47 40bc
00000370: b623 883c dce0 1e3d 5dc7 273d 3ef3 6fbc
00000380: ef1c 40bb ecc7 a8bb 3ab5 1c3d 90ef 17bd
00000390: f0b7 363c b694 b8bc b0e7 e8bc d6a4 52bb
000003a0: f559 e1ba 8e03 c2bc 9867 babc d6b6 78bc
000003b0: 0191 1abc 8f1f 25bc 5ed1 1fbd a5cb cbbc
000003c0: 9b28 6dbc 0fea 02bd 97a2 b1bc 9129 a23c
000003d0: cf22 0fbd 95b1 99bc 2b98 c9bb 2363 4e3c
000003e0: f05f 1b3d 837c 73bc 38f2 4a3c b4d8 0d3c
000003f0: 3005 2dbc fd80 da3c 2e6c e4bc 4ab8 abbc
-0.03675467 0.0003706962 0.021129955 -0.012364164 -0.02161967 -0.005269481 0.015557999 -0.010021825
-0.0009068453 -0.02559351 -0.025947398 0.012972504 -0.01700138 0.036809903 -0.013532833 0.03639858
0.00051548705 0.0041038496 -0.030826764 -0.026473854 0.0071424954 0.017010167 0.03616371 -0.030092733
0.010424585 0.0072398074 0.0022906582 0.036117226 0.030338347 0.029211095 -0.040644243 -0.00016268424
0.006549204 -0.018534862 -0.02197799 -0.026913665 0.028794566 -0.03573007 -0.014820164 -0.039813176
-0.027763724 0.0041119363 0.010687765 -0.013902036 0.022237299 -0.029098514 0.02481408 0.008159659
0.01434254 0.010579861 0.03440111 -0.037481368 0.02344386 0.029316694 -0.040882364 0.030433925
0.01706308 -0.029542996 0.022700109 0.0017692059 -0.040247403 -0.015270108 -0.011901487 0.03051078
-0.023489878 0.03373056 0.007559072 0.021946833 0.013599778 -0.014390012 0.024288487 0.017400334
-0.0067426236 0.00043005345 -0.038443167 0.036585312 -0.03242387 -0.039808173 0.009193397 0.018298576
0.016599197 0.04046865 -0.029167132 -0.01576106 -0.01635988 0.021975763 0.0055425335 -0.03373737
-0.019351576 -0.036298204 0.02888798 0.015364814 0.02012853 0.007665273 -0.005611071 0.012493683
-0.029491512 -0.014098291 0.028461298 -0.024261054 0.01592634 0.017826207 0.016313968 0.005736852
0.0344236 -0.013270887 0.027290117 -0.027940301 -0.008294263 0.0015473877 -0.0043526925 -0.0111046815
-0.022191321 -0.021831565 0.015028831 -0.012728224 -0.017043954 -0.030287024 -0.0030828963 -0.031325907
0.02177982 0.040560886 0.025577808 0.03843917 0.009017597 0.008188889 0.035658143 0.015077356
-0.03600599 -0.002290098 -0.029949388 0.016503094 0.020161645 -0.0186726 0.010908471 -0.037529707
0.010057656 -0.02680302 0.027190696 -0.0028553088 -0.001840234 0.010063035 -0.034370232 0.031165853
-0.032038577 -0.016851822 -0.014456995 0.017402176 -0.020758348 -0.017528426 -0.001883956 -0.013681709
-0.016361304 0.020112928 0.019248972 0.030372377 0.0031038183 0.02350953 0.009095105 0.026760157
-0.025874877 -0.0128627755 -0.038652398 -0.01605497 -0.002458655 0.0026860866 0.006923903 0.029377613
-0.032854207 -0.029826246 0.0074004284 0.025259942 0.00031485897 -0.001605078 0.0051775165 0.017286386
-0.020966344 -0.016281953 0.04001469 0.009966472 -0.006815688 0.032692846 -0.017326951 0.0016049641
-0.00432327 -0.018628318 0.019720698 -0.028379332 -0.042650945 0.027091539 0.021320364 -0.02565236
0.025965719 0.041878723 -0.029017173 0.00946287 0.038734004 0.012567353 -0.02941591 -0.004615833
-0.025917908 0.020342013 -0.011799369 0.012163745 -0.023760773 -0.0056376397 -0.018425098 -0.032714594
-0.024480311 -0.014373857 -0.00905323 -0.0032580916 0.038750634 0.027996158 0.039487585 -0.012661544
-0.027389308 0.035172116 0.008944149 -0.011735704 0.01661859 0.03878866 0.040961612 -0.014645396
-0.002931412 -0.0051507857 0.03825877 -0.0370937 0.011152253 -0.022531848 -0.02843079 -0.0032141707
-0.0017192947 -0.023683336 -0.022754475 -0.01518031 -0.009433986 -0.010078325 -0.039018027 -0.024877379
-0.014475013 -0.031961497 -0.021683974 0.019795211 -0.034945305 -0.018761436 -0.006152173 0.012596878
0.03793329 -0.014861229 0.012386851 0.008657623 -0.010560319 0.026672835 -0.027883615 -0.0209619

encoder.conv_bottom.conv1.bias f4 [64]
00000000: 6498 c83c b6bf cebc b529 d0bc 5d40 f43b
00000010: 744a a33a 7a93 a93c 7301 df3c 0bb2 bfbc
00000020: d45b 77bc 08d6 80bc a0a1 1939 2523 d6bc
00000030: 5946 a83c e54c 00bd cbea 8cbc c00a d93b
00000040: 7797 1b3d 60c1 5abc 120c d7bb 9495 273d
00000050: b88d 223d 652c d0bb 8393 ee3c 748f f23c
00000060: b4d5 17bd 2c36 3abc aa9c cabc 7852 73bc
00000070: 24e6 083d 1f7f 9cbc 1a91 c0bc 63f1 273d
00000080: 9fd6 a53c a9e2 003d f02e a43b d390 aebc
00000090: 733f a43c 6216 1cbc d202 b7ba 7134 f63b
000000a0: 5455 e53b fc6a d03c 3b19 023d 8847 11bd
000000b0: 6f25 e4bc d732 003d 3e7a ecbb b348 0dbd
000000c0: 9b4e d1bc b4b9 d33b 1d0b 14bd a837 4d3b
000000d0: edbd 123d 2ec8 41bb 7bde 26bd 6650 82bb
000000e0: 792b dabc 2f6f 35bc 8986 173c 8095 853c
000000f0: 9fbe 1c3d 6c69 8a3c c6bf fe3c 0eb6 003d
0.024486728 -0.0252379 -0.025410512 0.0074539618 0.0012458102 0.020700205 0.02722237 -0.023400327
-0.015097577 -0.015727058 0.00014651427 -0.026139805 0.020541357 -0.031323332 -0.017201802 0.006623596
0.037986245 -0.013351768 -0.006562718 0.040914133 0.039685935 -0.0063529485 0.029123073 0.02960942
-0.037069038 -0.011365455 -0.024732906 -0.014851205 0.033422604 -0.019103585 -0.02350669 0.04100169
0.02024394 0.03146616 0.005010478 -0.021309292 0.020049786 -0.009526821 -0.0013962633 0.0075135757
0.0069986973 0.02544164 0.031762343 -0.03546861 -0.027849881 0.031298485 -0.007216721 -0.03449316
-0.025550177 0.0064613465 -0.03614341 0.0031313691 0.03582566 -0.002956878 -0.040739518 -0.0039768694
-0.026632058 -0.0110738715 0.009248384 0.016306639 0.038267728 0.016895972 0.031097304 0.03142362

encoder.conv_bottom.conv1_bn.weight f4 [64]
00000000: 77be 7f3f c520 803f c520 803f 77be 7f3f
00000010: c420 803f 77be 7f3f 77be 7f3f c520 803f
00000020: 77be 7f3f c420 803f 77be 7f3f c520 803f
00000030: 77be 7f3f 77be 7f3f c420 803f 77be 7f3f
00000040: c420 803f 7abe 7f3f 77be 7f3f c520 803f
00000050: 78be 7f3f 77be 7f3f 77be 7f3f c420 803f
00000060: 77be 7f3f c120 803f 77be 7f3f 77be 7f3f
00000070: c420 803f c320 803f 77be 7f3f 77be 7f3f
00000080: 77be 7f3f c420 803f c420 803f c520 803f
00000090: c420 803f 77be 7f3f c420 803f c520 803f
000000a0: c420 803f c520 803f c420 803f 77be 7f3f
000000b0: c420 803f c520 803f c520 803f 77be 7f3f
000000c0: c520 803f 77be 7f3f 77be 7f3f c520 803f
000000d0: c520 803f c420 803f 77be 7f3f 77be 7f3f
000000e0: d4be 7f3f 77be 7f3f 77be 7f3f c520 803f
000000f0: c520 803f c420 803f c420 803f 77be 7f3f
0.999 1.001 1.001 0.999 1.0009999 0.999 0.999 1.001
0.999 1.0009999 0.999 1.001 0.999 0.999 1.0009999 0.999
1.0009999 0.9990002 0.999 1.001 0.9990001 0.999 0.999 1.0009999
0.999 1.0009996 0.999 0.999 1.0009999 1.0009998 0.999 0.999
0.999 1.0009999 1.0009999 1.001 1.0009999 0.999 1.0009999 1.001
1.0009999 1.001 1.0009999 0.999 1.0009999 1.001 1.001 0.999
1.001 0.999 0.999 1.001 1.001 1.0009999 0.999 0.999
0.99900556 0.999 0.999 1.001 1.001 1.0009999 1.0009999 0.999

encoder.conv_bottom.conv1_bn.bias f4 [64]
00000000: 0e12 833a 5111 833a 4412 83ba 3c12 833a
00000010: 2c12 833a f611 833a 8311 83ba d011 83ba
00000020: ea11 833a 1012 833a dd11 83ba 6310 833a
00000030: 4f11 833a 4c11 833a 2d12 833a bd10 833a
00000040: e70f 83ba 1a12 833a 1412 83ba 0f0b 83ba
00000050: 1f12 83ba 5711 83ba 3712 83ba 1612 833a
00000060: 4312 833a b311 83ba 0112 833a 4412 83ba
00000070: 1612 833a 7811 83ba 3312 833a d70f 833a
00000080: 4912 83ba 8e11 83ba 1a12 83ba 3312 833a
00000090: 0112 833a 2e12 833a a511 83ba 2d12 833a
000000a0: 7b11 83ba 2e10 833a e811 833a 7611 833a
000000b0: ee10 83ba 1b11 833a 1412 833a a411 833a
000000c0: dd0e 83ba 830f 833a 0b12 833a 000f 833a
000000d0: 0912 83ba a611 833a bd11 83ba e011 833a
000000e0: 2c12 83ba 820b 833a c611 83ba 2e0d 833a
000000f0: a211 83ba da11 833a 4e12 83ba f810 83ba
0.0009999888 0.0009999668 -0.000999995 0.0009999941 0.0009999922 0.000999986 -0.0009999726 -0.0009999815
0.0009999846 0.000999989 -0.000999983 0.000999939 0.0009999665 0.0009999662 0.0009999924 0.0009999495
-0.0009999246 0.0009999902 -0.0009999895 -0.0009997803 -0.0009999907 -0.0009999675 -0.0009999935 0.0009999897
0.0009999949 -0.0009999782 0.0009999872 -0.000999995 0.0009999897 -0.0009999713 0.0009999931 0.0009999227
-0.0009999956 -0.0009999739 -0.0009999902 0.0009999931 0.0009999872 0.0009999925 -0.0009999765 0.0009999924
-0.0009999716 0.0009999329 0.0009999843 0.0009999711 -0.0009999552 0.0009999605 0.0009999895 0.0009999764
-0.0009998936 0.000999913 0.0009999884 0.0009998977 -0.0009999882 0.0009999766 -0.0009999793 0.0009999834
-0.0009999922 0.0009997936 -0.0009999804 0.0009998435 -0.0009999762 0.0009999827 -0.0009999962 -0.0009999564

encoder.conv_bottom.conv1_bn.running_mean f4 [64]
00000000: b2d7 323c 7d2e d63c 21ae c03c 8e08 873c
00000010: ba12 8a3c 2a5f 7e3c 492d 233d bf85 1f3d
00000020: 0bd4 ee3c 2a5d 933c 3021 5a3d e054 d73c
00000030: 6ac5 443d ae5b b13c 6e63 ae3c ce49 013d
00000040: da2b db3c cf27 8d3d b3d2 2c3d 1df2 1b3d
00000050: 4284 273d f382 cc3c 1a8a 873b dbb1 ef3c
00000060: beae a03c 8123 863d 32f2 7d3c f2de e43b
00000070: 4e8c e73c 96f7 043c 9261 e53b 1525 2a3c
00000080: 6b8d 4d3d 7827 0e3d 38a1 5f3c aa20 783d
00000090: f92d 343d 983d e13b 5ea6 5c3d ed30 893c
000000a0: 3b82 5e3c 96f4 c03c 289e 663d b506 723d
000000b0: 6212 b53c 766c 733c 7eb6 013c 6018 8e3c
000000c0: 1a6a 2c3d 37a9 0c3d 7ec8 a33d a555 f03c
000000d0: 79d4 b93c 9e38 353c 7099 593d 9af8 483d
000000e0: 918e 4c3c bfd2 953c 0de5 533c ebf7 2e3d
000000f0: 2264 513d ea4f a13c a67c c93c 2847 613c
0.010915684 0.026145214 0.023520531 0.016483571 0.016854633 0.015525619 0.03983811 0.03894591
0.029153844 0.01798876 0.053254306 0.026285589 0.04803983 0.021650162 0.021287646 0.031564526
0.026754308 0.068923585 0.042193126 0.038072694 0.040897615 0.024964785 0.004136336 0.029259613
0.019614574 0.065497406 0.015499638 0.006984585 0.028265145 0.00811567 0.0070001567 0.010384818
0.050183695 0.03470561 0.013649277 0.060578026 0.043989155 0.0068737976 0.053869598 0.016746962
0.013580854 0.023554128 0.056303173 0.059088428 0.022103492 0.014857402 0.007917045 0.017345607
0.042093374 0.034341063 0.07997225 0.029337713 0.022684323 0.011060862 0.053124845 0.04906521
0.012485162 0.018288968 0.012933028 0.0427169 0.051120885 0.019691426 0.02459557 0.013749875

encoder.conv_bottom.conv1_bn.running_var f4 [64]
00000000: 3f3e 683f 898a 6a3f eb12 6a3f 6f39 693f
00000010: 5562 683f cc90 683f 6e89 6b3f 7fc2 6b3f
00000020: 6fbd 6a3f 3842 693f 9ded 6c3f a85b 6a3f
00000030: 483f 6c3f b182 693f 91af 683f e4e6 6a3f
00000040: 5534 6a3f 243e 6c3f f49c 6c3f f194 6a3f
00000050: 6e25 6d3f 31d3 6a3f d8ce 663f 3f9a 6a3f
00000060: 9eef 693f 6342 703f 9994 683f b51e 673f
00000070: a62d 6c3f 6dee 673f 282b 673f 3115 683f
00000080: 802b 6c3f 8793 6b3f 6d0c 683f 8db2 6f3f
00000090: ed84 6c3f b250 673f fd79 6e3f ce5e 683f
000000a0: aa83 683f cb0c 6a3f 4721 723f 0adc 6d3f
000000b0: 956e 693f 183f 683f df3b 673f bede 683f
000000c0: 765a 6b3f 36b8 6b3f 3278 713f 5077 6b3f
000000d0: 4245 693f 1fba 673f 03fd 6d3f a2d4 6c3f
000000e0: 66f4 673f 24c9 683f d0c4 673f 3380 6c3f
000000f0: 2f47 6d3f 90a3 693f 0812 6a3f 0563 683f
0.9071998 0.9161764 0.91435117 0.9110326 0.9077504 0.9084594 0.92006576 0.9209365
0.916953 0.91116667 0.9255007 0.91546106 0.9228406 0.91215044 0.90892893 0.9175856
0.914861 0.9228232 0.9242699 0.91633517 0.9263524 0.917285 0.9015937 0.9164161
0.9138125 0.938513 0.9085174 0.9028123 0.92257154 0.90598184 0.90300226 0.90657336
0.92253876 0.92021984 0.9064396 0.9363182 0.9239033 0.90357506 0.9315489 0.9076966
0.90825903 0.9142577 0.9458203 0.9291388 0.9118436 0.90721273 0.9032573 0.9096488
0.9193491 0.9207796 0.9432403 0.9197893 0.91121304 0.90518373 0.9296419 0.9251195
0.906073 0.90931916 0.9053469 0.92383116 0.9268674 0.912652 0.91433764 0.9077609

encoder.conv_bottom.conv2.weight f4 [64, 64, 3, 3]
00000000: 8669 a3bb b622 fb3c 567a 0bbd a92e af3c
00000010: 41b6 07bd 407b 24bd b2d2 a4bc b742 d03c
00000020: b526 11bc f78a af3b b181 633b 771f a83b
00000030: a307 c53c 24ac 143c e50b a03a 58f8 00bd
00000040: 249f 0bbc e56f 17bd 0bc7 213d 4f25 b43c
00000050: 88f1 553c ef1c e83c e718 283c e547 6cbc
00000060: 24ed 0fbd 3d2b ffba f8cb cbbc 0d06 b2ba
00000070: a333 88bc cc57 bf3b 6e74 023d 1642 2e3d
00000080: 1548 d83c f290 65ba 114a f43c 51ba 043c
00000090: f028 0ebd 08ba e6bc daed 0dbd e371 65bc
000000a0: 3e15 113d 2a7f 9e3b 7d41 19bc 9cc6 393c
000000b0: f136 1dbd 60b9 81bb b394 963c 4c50 e53c
000000c0: 3f07 083d 7b5b 813c 2e12 013d 8284 d43c
000000d0: 169b 1cbd ba49 d8bc 5c96 a0bc f434 0d3d
000000e0: a325 183d 2650 c63c 496d 85bc abee 6f3c
000000f0: d814 a3bc 3fb9 79bc e37c 243d 35fa 1cbd
00000100: 3fa1 c1bc 7196 23bd 78df 5cbc 7c51 c13c
00000110: 46b9 13bd 6ba0 e5bc cfa8 17bd 7095 4fbc
00000120: c899 23bd 1c8f dfbc 51d0 9a3c ef1b b63b
00000130: 2209 92bb 5d39 06bd 4e80 973c f29a fa3c
00000140: d456 a8bc 6f44 9a3c 103f 1e3c 9b19 103c
00000150: ea16 8fbc 33cf 06bd 4d41 80bc 67b3 0f3d
00000160: a61f f13b 34d8 c13c 2367 9bbc 7caf 06bd
00000170: e442 a6bb 9dae 02bd 4d37 d2bc 5aa1 243c
00000180: 5a68 1d3d 2ba7 e5bc 491c 7dbc 0dc3 a53c
00000190: 7ee6 01bd 2605 f83c 1a49 20bd 045d 073c
000001a0: dd90 ef3b aeb4 96bb dc6d fcbc d0af a1bc
000001b0: adbf f13c 7808 463c 4c59 bfbc cfcb 283d
000001c0: 0b75 083d 913e f43b c24a a63b 4db3 db3b
000001d0: 784b ae3b aeba acbb 92e8 043d f6e2 7bbc
000001e0: b89f 02bd f2f9 183d 1d3b e13c d17c 013d
000001f0: 1c8a 29bd 1116 86bc c222 afbc 2299 abbc
00000200: cbe5 80bc 78e7 c3bc 39f7 73bc af06 263d
00000210: 00b6 b2bc 8de9 0b3d 3e07 183c d6fc 6fbc
00000220: 4ef6 81ba 2cd4 78bb acb1 c33a c0be a93c
00000230: bba6 143d 10d4 1ebd 1b00 f73c 5286 aebc
00000240: aef3 0d3d 077a 213d 43e1 833c 97b7 98bc
00000250: 87ed 1b3d 6dce 863c 31d1 6dbc e050 ea3c
00000260: b131 09bd 4841 ca3c defd b03c 24ae 18bd
00000270: 8bd0 993c 4b0a b33c 24fc ce3c 4235 00bd
00000280: 0e0c b5bc f873 14bd fe3b 7abc 7120 1c3d
00000290: aca2 4abc 9de7 b83c 38df b5bc 4510 293d
000002a0: f0ff b93b f3dd 7d3c 7250 823c dc9a 7d3b
000002b0: 0c65 f13c 383d 123d c484 de3c 6255 2e3d
000002c0: 16f6 923c 1394 e9bc 82b9 65bc 524e b6bc
000002d0: cc76 183c 8725 cd3c 9fe6 0e3d fcad e4bc
000002e0: 29a5 ccbc f9db 56bb 2282 cb3c d781 3dbc
000002f0: d238 d7bc b48d 18bd 20da 17bd e864 69bc
00000300: 5bcc 043d ed71 a93c 7746 ecbc e531 12bd
00000310: 6e9b 9d3c a2c1 3abc fa72 fabc 01a0 413b
00000320: c83d 703b 1049 ddbb d3b4 3e3c 50d8 b53c
00000330: d0a0 c9bc d42b 0e3c 4472 bd39 746c ef3c
00000340: 64ab 873c c6ef 073d 18c5 1cbc 4cde df3a
00000350: 95b1 c7bc a9d8 bb3b a1e9 1f3d 90c2 b13c
00000360: ff28 14bd a24f b0bc bba4 b63c 99b3 b53c
00000370: d567 67bc 4797 bf3c 5145 79bb 35ab bf3c
00000380: db6b 00bd 9489 f6bb cc98 d7bc 9645 923b
00000390: 60c3 df3b 2e88 9dbb 3f97 623c 6e20 083c
000003a0: 78e6 39bc 7433 d93c 0fce 843c 1cfd 223d
000003b0: 580d dbbc 04d3 103d 9fee 7fbc 564b a5bc
000003c0: bd38 4abc 8c58 323b 4583 103d d175 d33c
000003d0: dd9b 763c ed28 1bbd 8d29 82bc 32c0 17bd
000003e0: f811 eb3c 1e34 35bc 3e3f 0ebd 8c8b 86bc
000003f0: 17eb e63b 3141 57bc 2c4e e2bc df9e 0abc
-0.0049869446 0.0306562 -0.034052216 0.021384554 -0.033132795 -0.040156603 -0.020119999 0.025422437
-0.008859326 0.005357142 0.0034714753 0.005130704 0.024051493 0.009074245 0.0012210576 -0.03148684
-0.008521829 -0.036971945 0.039496463 0.021990446 0.013058074 0.02833411 0.010259843 -0.014421438
-0.035138264 -0.0019467842 -0.024877533 -0.0013582126 -0.016626185 0.0058393236 0.031849317 0.042543493
0.026401559 -0.0008757255 0.029820474 0.008101062 -0.03470701 -0.028164878 -0.03465066 -0.0140042035
0.03542065 0.0048369365 -0.0093539925 0.011338856 -0.038382474 -0.003958866 0.018381452 0.02799239
0.033210035 0.015790692 0.031511478 0.02594209 -0.03823384 -0.026402343 -0.019602947 0.03447433
0.03714527 0.02420814 -0.016287463 0.014644305 -0.0199074 -0.01524192 0.040158164 -0.038324554
-0.023636458 -0.039938394 -0.0134810135 0.023598425 -0.036065362 -0.028030595 -0.037026223 -0.012669906
-0.03994158 -0.02728992 0.018898161 0.005557529 -0.004456655 -0.03276955 0.018493798 0.030591462
-0.020549215 0.01883146 0.00965859 0.008795167 -0.017466981 -0.032912444 -0.015656138 0.0350832
0.007358509 0.023662664 -0.018970078 -0.0328822 -0.005073892 -0.031904805 -0.025661135 0.010048235
0.038429596 -0.028033813 -0.015448638 0.020234609 -0.031713955 0.030275892 -0.039132215 0.008261923
0.00731097 -0.0045991754 -0.030814104 -0.019737154 0.029510343 0.01208698 -0.02335801 0.041209992
0.033314746 0.0074537476 0.00507483 0.006704724 0.005319055 -0.0052712774 0.03244836 -0.015373936
-0.0318906 0.03734774 0.027494008 0.031613175 -0.041391477 -0.016367944 -0.021378879 -0.020947043
-0.015734574 -0.023914084 -0.014890485 0.040533718 -0.0218153 0.03415828 0.00927907 -0.014647683
-0.0009915323 -0.0037968261 0.001493027 0.02072084 0.03629182 -0.038776457 0.030151417 -0.021304283
0.03465622 0.039423015 0.016098624 -0.01864223 0.03806832 0.016455853 -0.014515207 0.028603017
-0.033494655 0.024689332 0.021605428 -0.03727545 0.018776199 0.021855494 0.025266714 -0.03130079
-0.022100475 -0.03624341 -0.015273092 0.038116876 -0.012367886 0.02257138 -0.022201166 0.04127528
0.005676262 0.015494811 0.0159075 0.003869704 0.029467128 0.035702914 0.027162917 0.042561896
0.017939609 -0.02851299 -0.014021279 -0.022254143 0.009305667 0.025042308 0.034887906 -0.027914993
-0.024981098 -0.0032784923 0.024842326 -0.011566601 -0.026272211 -0.037244514 -0.037073255 -0.014245249
0.03242145 0.020684207 -0.028842194 -0.035692114 0.019239154 -0.011398705 -0.030572403 0.0029544833
0.0036657918 -0.0067530945 0.011639792 0.022197872 -0.024612814 0.008677442 0.00036134024 0.02922652
0.016561218 0.03318765 -0.009568475 0.00170798 -0.02437667 0.005732615 0.039041165 0.02169922
-0.03617191 -0.021522347 0.022295346 0.022180365 -0.014123877 0.023387564 -0.00380357 0.023397068
-0.03135286 -0.007523725 -0.026317976 0.0044638617 0.0068287104 -0.0048074936 0.013830005 0.008308513
-0.011346452 0.026513793 0.016211538 0.039792165 -0.026739761 0.03535749 -0.015620857 -0.020177525
-0.012342629 0.0027213423 0.03528144 0.025813015 0.015051809 -0.037880827 -0.015888954 -0.037048526
0.028695092 -0.011059789 -0.03472828 -0.016423963 0.007047068 -0.013138101 -0.027625166 -0.008460729

encoder.conv_bottom.conv2.bias f4 [64]
00000000: 4dea 823a a23a fe3c 815f cf3c 135b dd3c
00000010: b0b4 aa3b 0256 233c 3b8f 0a3b 1a97 0dbd
00000020: 6d98 b33c 508d 9cbc 0b6b 36bc 152a 203d
00000030: 8c88 99bb e108 463c 4a26 3e3c 56ed 273d
00000040: 3e57 453c 99ad c83c 7240 2e3d df7e 14bd
00000050: d92d 253d ad04 1e3d 712f 913c a19b 043d
00000060: d439 f03c f32d b03c bc77 a03c 9ea9 8b3c
00000070: 0aef d2bc 959e 00bc 2668 39bc a6e6 d5bc
00000080: 9d3d 0f3d 1b6d 98bc 0a54 3b3c a49a 823c
00000090: a526 80bc e090 abbb 0403 cb3c 3596 0abd
000000a0: c006 6f3c abe8 08bd 9162 cebc dff2 e1bc
000000b0: 2dd8 303c 8b2b 02bc 6b96 97bc 6257 213d
000000c0: dc58 0bbd d0ff 933c 1445 a0bc d929 cdbc
000000d0: 2693 213b 62d5 a1ba e43c 0abd 898d fabc
000000e0: 4c1b 9b3c 06f9 26bc 94e4 20bc 1020 88bc
000000f0: 0638 93bc 0777 02bd e622 bb3c eb8d f7bc
0.000998804 0.031033818 0.025314094 0.027020967 0.005209528 0.009969236 0.00211425 -0.03456793
0.021923268 -0.019110352 -0.0111339195 0.039102633 -0.004685467 0.012087078 0.0116058085 0.040997826
0.012044726 0.02449684 0.04254193 -0.036253806 0.040326927 0.038578678 0.017722817 0.03237498
0.02932445 0.021506285 0.019588344 0.017048653 -0.025748748 -0.007850309 -0.011316335 -0.026110958
0.03497087 -0.018606713 0.011433611 0.015942879 -0.015643427 -0.0052357763 0.024781711 -0.033834655
0.014589012 -0.033425014 -0.025193485 -0.02758163 0.010793728 -0.007944952 -0.018504342 0.039389975
-0.03402029 0.018066317 -0.019564189 -0.025044369 0.0024654358 -0.0012346918 -0.033749476 -0.030585067
0.018933915 -0.010191208 -0.009820122 -0.016616851 -0.01797105 -0.031851795 0.02284379 -0.030219039
